app/src/main/assets/mnist_model.tflite (tflite, 491072 bytes, 8 tensors)

arith.constant f4 [64]
-0.04985006 -0.06283375 -0.07764495 -0.012531784 -0.037733838 0.029757027 0.0186158 -0.15207474
-0.062285244 -0.10080668 -0.02307625 -0.04052889 -0.12597498 -0.039947353 -0.123666145 -0.09169501
-0.060452573 -0.10420787 -0.14543378 0.0032138752 -0.17382127 -0.00841404 -0.00017416006 -0.07580864
-0.14175588 -0.12512696 -0.10358542 -0.04046961 -0.0530004 0.037456848 0.015964126 -0.06936712
-0.028479978 0.0017532151 0.0008742307 -0.11161757 0.017317263 -0.09700423 -0.021700764 -0.024241235
0.017184928 -0.012406664 -0.013862199 -0.13869847 -0.09586229 -0.030150138 -0.088129535 -0.044280957
-0.13854681 0.004985211 -0.09773146 -0.07821912 -0.10461433 -0.005527063 -0.07771755 -0.10231875
-0.079011455 -0.03691538 -0.009743181 -0.070457295 -0.11035055 -0.053441986 -0.07797209 0.035064105
00000000: 942f 4cbd fbae 80bd 5104 9fbd 1d52 4dbc
00000010: cc8e 1abd 02c5 f33c 2a80 983c 7bb9 1bbe
00000020: d01e 7fbd bc73 cebd 670a bdbc 9f01 26bd
00000030: 96ff 00be d69f 23bd ad44 fdbd 98ca bbbd
00000040: 1e9d 77bd f06a d5bd 98ec 14be e19f 523b
00000050: 34fe 31be 0bdb 09bc bc9e 36b9 8f41 9bbd
00000060: 7428 11be 4821 00be 9824 d4bd 76c3 25bd
00000070: f316 59bd 5a6c 193d 33c7 823c 5910 8ebd
00000080: d84e e9bc 23cc e53a a12c 653a c197 e4bd
00000090: efdc 8d3c 27aa c6bd cdc5 b1bc 8e95 c6bc
000000a0: 68c7 8c3c 5245 4bbc 471e 63bc f906 0ebe
000000b0: 7353 c4bd 6cfd f6bc 427d b4bd f35f 35bd
000000c0: 37df 0dbe fb5a a33b 6f27 c8bd 5931 a0bd
000000d0: 0a40 d6bd 5d1c b5bb 612a 9fbd 7e8c d1bd
000000e0: c2d0 a1bd 9534 17bd dda1 1fbc ea4b 90bd
000000f0: 78ff e1bd fce5 5abd d5af 9fbd 619f 0f3d

arith.constant1 f4 [64, 3, 3, 32]
-0.088862404 -0.03525732 -0.0033464904 -0.068242125 0.124947116 -0.15862754 0.0191697 0.029868482
-0.06695577 -0.10205439 0.029116262 -0.049300153 0.0019444082 -0.06861947 0.048860613 -0.10225538
0.02482625 -0.034144502 -0.08604322 -0.24157962 0.019020027 -0.12723596 -0.17585398 -0.10657154
-0.06883668 -0.06766992 0.0004975677 -0.03197204 0.048006605 0.09188518 0.0047761807 -0.018267484
0.10860946 -0.0036589117 -0.0746663 0.0011041847 -0.09214169 -0.19159985 0.033526417 0.027017204
-0.028721167 0.057145055 -0.24667457 -0.0046150144 0.07273654 0.0468565 -0.00021661917 0.112595655
-0.0073982924 -0.043342434 -0.09419367 -0.35624355 -0.044691548 -0.007691924 -0.20010887 -0.13696061
-0.28595644 0.028078036 0.06832892 0.06674418 0.051708978 0.00507144 0.056551713 -0.00046107452
0.20843543 0.26892534 -0.16279654 0.27085796 -0.09527026 0.012440048 0.00952564 0.17281464
-0.049979035 0.11434072 -0.05325888 -0.23737052 0.18164462 -0.07539477 0.04000488 0.12515098
-0.087673575 0.06433794 0.08498366 0.015466209 -0.02164569 0.089773804 0.14597765 -0.2069626
-0.09641907 -0.15608037 -0.009610056 0.04421773 0.12858927 0.025444346 0.20656756 0.1507236
0.06615554 0.034740996 -0.075282425 0.05708122 -0.07866867 0.08503225 -0.021881728 0.00566464
-0.060688578 -0.09048267 0.0108197685 -0.10079566 -0.087716535 -0.25848943 0.0302747 -0.04382789
-0.0739078 -0.16351894 0.019611819 0.065774426 -0.13309778 0.12055799 0.001964277 0.029930351
-0.078473434 0.016814252 -0.09894554 -0.035519913 0.031645797 -0.017793672 -0.08908486 -0.037565216
-0.03065247 -0.18203008 0.118908465 -0.19004975 0.031708904 -0.062102 0.01615264 -0.1421263
-0.016177382 -0.033685848 -0.014282881 -0.06792444 -0.10681161 -0.084230416 -0.15859318 -0.00020139237
0.06438197 -0.038806364 -0.058409367 -0.068554506 0.05140666 0.066342734 -0.045319274 -0.015228761
0.13478956 0.090951346 0.08403854 0.0044953516 -0.053417373 -0.02872795 -0.1193841 -0.11273654
-0.06309719 -0.03984418 -0.08166191 -0.07585296 -0.070602685 -0.13445716 -0.024619237 -0.04329402
-0.20858471 -0.32785833 -0.07536192 0.14639324 -0.22613569 0.063196525 0.12493903 0.09363022
-0.011283727 0.02263841 -0.08269979 -0.1344095 0.06013241 0.09896489 -0.1506645 -0.071793884
-0.12290543 -0.1367482 0.075456254 -0.0916196 -0.041824248 0.1335646 -0.00438593 0.12731503
0.0021549093 0.032244727 -0.1584082 0.08158782 0.011059772 -0.02623505 0.014422948 0.039122704
-0.0734542 -0.16291612 -0.033485852 -0.032223176 -0.15413001 -0.23025535 -0.0016424317 -0.14276044
-0.08545265 -0.25860113 0.10092185 -0.014782613 -0.07392281 0.024520816 0.0071418714 -0.12068731
-0.07591472 -0.166247 -0.08912608 -0.09945767 -0.20023356 -0.14150864 -0.045705605 0.027224487
-0.17780018 -0.20234655 0.07472323 -0.14012015 -0.054816183 0.12245049 0.01804505 -0.27200907
0.09644642 -0.021410314 0.096881054 -0.24771927 -0.032443505 -0.11178694 -0.21987675 -0.20285872
-0.09422028 -0.10200477 -0.01836253 0.119449206 -0.076872006 0.0285532 0.078623615 -0.017687336
0.064599276 0.19153099 -0.09777994 -0.11219844 0.012937436 -0.043183282 -0.16108778 -0.29743105
00000000: 7efd b5bd fb69 10bd cb50 5bbb 87c2 8bbd
00000010: 46e4 ff3d 426f 22be c609 9d3c bfae f43c
00000020: 1b20 89bd e401 d1bd 3a85 ee3c f5ee 49bd
00000030: 83db fe3a 5d88 8cbd 1122 483d 456b d1bd
00000040: 6b60 cb3c 1bdb 0bbd 6d37 b0bd a660 77be
00000050: e3cf 9b3c 254a 02be 1113 34be 2e42 dabd
00000060: 3ffa 8cbd 8796 8abd 346f 023a 1df5 02bd
00000070: 93a2 443d 4c2e bc3d 8281 9c3b b1a5 95bc
00000080: a36e de3d 5aca 6fbb a5ea 98bd 4aba 903a
00000090: c8b4 bcbd c032 44be ff52 093d 2f53 dd3c
000000a0: a748 ebbc ef10 6a3d 4298 7cbe 8c39 97bb
000000b0: e5f6 943d 9aec 3f3d 4424 63b9 8d98 e63d
000000c0: 606d f2bb d687 31bd 9ce8 c0bd 8e65 b6be
000000d0: 7c0e 37bd 890c fcbb 57e9 4cbe 673f 0cbe
000000e0: e268 92be e903 e63c 08f0 8b3d 2cb1 883d
000000f0: cbcc 533d 522e a63b c5a2 673d 60bc f1b9
00000100: 1970 553e 95b0 893e 23b4 26be e5ad 8a3e
00000110: 0e1d c3bd 58d1 4b3c 6e11 1c3c 52f6 303e
00000120: d1b6 4cbd 782b ea3d fc25 5abd 4211 73be
00000130: 0c01 3a3e 9368 9abd 28dc 233d 9427 003e
00000140: 348e b3bd 9cc3 833d ea0b ae3d fb65 7d3c
00000150: 4d52 b1bc 54db b73d 2a7b 153e 01ee 53be
00000160: 5d77 c5bd 88d3 1fbe 7f73 1dbc a71d 353d
00000170: e8ac 033e a970 d03c 7286 533e 4a57 1a3e
00000180: 8e7c 873d 934c 0e3d ac2d 9abd ffcd 693d
00000190: 0a1d a1bd 6325 ae3d 4f41 b3bc 729e b93b
000001a0: 9694 78bd fa4e b9bd 6645 313c f46d cebd
000001b0: baa4 b3bd ba58 84be a602 f83c e084 33bd
000001c0: f95c 97bd 8271 27be f7a8 a03c beb4 863d
000001d0: c94a 08be 1ce7 f63d 19bb 003b 7f30 f53c
000001e0: aeb6 a0bd 0bbe 893c f6a3 cabd 547d 11bd
000001f0: 069f 013d 09c4 91bc 2072 b6bd fcdd 19bd
00000200: e41a fbbc 1866 3abe 4886 f33d 679c 42be
00000210: 32e1 013d ab5e 7ebd 8b52 843c 8f89 11be
00000220: 6e86 84bc 2cfa 09bd bf02 6abc f81b 8bbd
00000230: 0cc0 dabd ff80 acbd 4066 22be da2c 53b9
00000240: b2da 833d 6cf3 1ebd a93e 6fbd 4e66 8cbd
00000250: ca8f 523d b3de 873d b4a0 39bd 0e82 79bc
00000260: 4606 0a3e b344 ba3d 661c ac3d be4d 933b
00000270: 2dcc 5abd e156 ebbc a77f f4bd 6ae2 e6bd
00000280: 1939 81bd a733 23bd 5c3e a7bd cc58 9bbd
00000290: 2498 90bd 23af 09be 48ae c9bc 1255 31bd
000002a0: 3b97 55be 0cdd a7be 5a57 9abd 1ce8 153e
000002b0: 1d90 67be 2e6d 813d 09e0 ff3d 33c1 bf3d
000002c0: 62df 38bc 3074 b93c 825e a9bd a5a2 09be
000002d0: 674d 763d 1bae ca3d cb47 1abe ac08 93bd
000002e0: d8b5 fbbd b807 0cbe cf88 9a3d 0fa3 bbbd
000002f0: e74f 2bbd 29c5 083e d9b7 8fbb df5e 023e
00000300: 6139 0d3b 0c13 043d c235 22be 8417 a73d
00000310: 0c34 353c e3ea d6bc 3a4e 6c3c 213f 203d
00000320: 286f 96bd 7cd3 26be 7628 09bd 73fc 03bd
00000330: 42d4 1dbe 0fc8 6bbe dd46 d7ba cb2f 12be
00000340: cd01 afbd 5e67 84be 1db0 ce3d c632 72bc
00000350: d864 97bd e1df c83c 5c06 ea3b e92a f7bd
00000360: 2d79 9bbd a73c 2abe bc87 b6bd 76b0 cbbd
00000370: 070a 4dbe a4e7 10be cd35 3bbd e305 df3c
00000380: 4011 36be ef33 4fbe 7e08 993d a87b 0fbe
00000390: ef86 60bd 53c7 fa3d 36d3 933c c644 8bbe
000003a0: b385 c53d af64 afbc 9369 c63d 1faa 7dbe
000003b0: 7be3 04bd 8df0 e4bd 5f27 61be 32ba 4fbe
000003c0: 90f6 c0bd e0e7 d0bd 046d 96bc c9a1 f43d
000003d0: 126f 9dbd 67e8 e93c 6b05 a13d 08e5 90bc
000003e0: a04c 843d b320 443e d940 c8bd 4cc8 e5bd
000003f0: 8af7 533c f4e0 30bd 32f4 24be e248 98be

arith.constant2 f4 [10, 64]
-0.079979114 -0.24486293 -0.32112303 0.2369533 -0.0038748442 0.11978432 -0.43554583 0.0060927765
0.32122543 0.24986045 -0.19539978 0.06765443 -0.029520823 0.18387258 0.059919056 -0.30371243
0.2912084 0.2292733 -0.2347104 0.23790234 -0.36243585 -0.040962026 -0.27917576 0.2747302
-0.3431492 -3.1121905e-05 -0.23565386 0.14274421 -0.17842887 -0.19536364 0.07792579 -0.10502096
0.036281634 0.13354106 -0.38281187 0.3468778 -0.3463904 -0.14039814 0.16475438 0.31420407
0.0053435774 -0.044325087 -0.2963979 -0.27833638 0.184777 -0.018683065 -0.019921022 0.25415686
-0.014053708 0.25002012 -0.2378088 0.29603654 -0.060379118 0.12775049 -0.08350815 0.09816491
0.061227567 0.23602565 0.004963285 -0.23037407 0.30532366 0.0085085295 -0.37327582 -0.42364457
-0.10539758 0.17320134 0.20869254 -0.22135252 0.33148378 -0.11590707 0.04729579 -0.1612688
-0.33206427 0.10437211 -0.17816512 -0.186819 0.0061953426 0.21542546 0.29401308 0.08506229
-0.24811226 0.20746268 0.2010516 -0.069476046 0.13678236 -0.26037887 -0.021328837 -0.18766767
0.016763905 0.0039522443 -0.21843863 -0.09716111 0.082443625 -0.21826598 -0.24654256 -0.2899293
0.22829454 0.01418292 0.13191162 0.24859682 -0.26316136 -0.07646208 -0.23616786 0.058243748
0.18184654 -0.22598927 0.18038006 -0.11573879 -0.23421416 0.18428084 -0.30122146 0.24638285
-0.44228804 -0.07634388 0.0916845 -0.28317907 -0.039438996 -0.17377868 -0.24636218 0.15208565
0.11589732 0.19240189 0.118479684 0.40464067 0.235994 -0.05565454 0.15576321 0.08942524
-0.12847225 -0.043324754 -0.3258191 -0.22189556 -0.30734205 0.24370475 0.1723625 -0.32279262
-0.356451 -0.13679582 0.37831995 -0.2793996 -0.2345566 -0.2953299 -0.0377527 0.15329875
0.18655905 0.17965613 0.19979416 -0.3414359 -0.12639682 -0.45361632 -0.12424956 0.1613347
0.025754564 -0.057910513 0.16047259 0.121644385 -0.26333836 0.25962052 -0.29407665 0.23255576
-0.33615977 0.11175446 0.16191077 0.29866755 -0.37037534 -0.0949611 -0.057106804 0.31630722
-0.14393847 0.16129977 -0.19611256 0.3126239 0.19799043 0.2804963 -0.1715308 0.28316566
-0.09794197 0.28231263 -0.15284914 0.06720601 0.07073359 0.22289988 -0.025266998 0.29653355
-0.16150095 -0.28160354 -0.09221601 -0.48531362 0.058344215 0.2537995 -0.19094107 -0.1468568
0.103162475 0.21911412 0.09752915 -0.23705478 -0.20554917 -0.35835102 -0.18992187 -0.369995
-0.009015787 0.22718802 -0.16940528 -0.19953336 0.23478259 -0.25724077 0.26554897 0.23611832
0.22385393 0.075589545 -0.32809842 0.13412356 -0.30861187 0.2387225 0.2069752 -0.089723825
-0.38890433 -0.012546805 -0.02198318 0.120499924 -0.26620466 0.2507792 0.055946585 0.1253222
0.12707911 0.031630788 0.1551405 0.15634505 0.04904028 -0.0687463 -0.3439828 -0.042967957
-0.13219634 0.31280062 0.30241644 -0.10849544 0.07290874 0.12064551 0.024013814 -0.21650566
-0.30572575 0.1758618 -0.3778307 0.11950992 0.10830001 -0.28307265 -0.17910405 -0.33572516
-0.57916045 0.026630701 -0.11525547 -0.25298896 -0.19096752 0.0881729 -0.33467686 0.232011
00000000: 17cc a3bd 59bd 7abe 3d6a a4be e3a3 723e
00000010: 19f1 7dbb 7b51 f53d ddff debe eaa5 c73b
00000020: a977 a43e 6bdb 7f3e e116 48be 688e 8a3d
00000030: a7d5 f1bc 1849 3c3e af6d 753d 3280 9bbe
00000040: 4419 953e 9fc6 6a3e ec57 70be ac9c 733e
00000050: 3191 b9be ccc7 27bd 20f0 8ebe 70a9 8c3e
00000060: 40b1 afbe e488 02b8 3f4f 71be 8a2b 123e
00000070: 0fb6 36be 680d 48be 8e97 9f3d 3b15 d7bd
00000080: 0d9c 143d fdbe 083e ebff c3be f899 b13e
00000090: 155a b1be 88c4 0fbe 5fb5 283e 5bdf a03e
000000a0: 2d19 af3b 398e 35bd 77c1 97be 1b82 8ebe
000000b0: 2f36 3d3e 3a0d 99bc 6931 a3bc d920 823e
000000c0: 8641 66bc a302 803e 2684 73be 1a92 973e
000000d0: 1850 77bd 06d1 023e 5206 abbd af0a c93d
000000e0: c2c9 7a3d b5b0 713e 0da3 a23b 2ee7 6bbe
000000f0: 6253 9c3e 5c67 0b3c 021e bfbe f1e7 d8be
00000100: b0da d7bd b15b 313e 7fb3 553e 3caa 62be
00000110: 3eb8 a93e b060 edbd 3bb9 413d a623 25be
00000120: 5404 aabe 0bc1 d53d eb70 36be 7b4d 3fbe
00000130: 4d02 cb3b 7e98 5c3e e288 963e 2335 ae3d
00000140: 2411 7ebe 1971 543e 78e0 4d3e 7549 8ebd
00000150: ad10 0c3e 6150 85be d0b9 aebc f42b 40be
00000160: 7554 893c d481 813b 60ae 5fbe 67fc c6bd
00000170: 34d8 a83d 1e81 5fbe a775 7cbe 9d71 94be
00000180: 0bc6 693e 7a5f 683c d713 073e 2a90 7e3e
00000190: 16bd 86be 2798 9cbd fdd5 71be ff90 6e3d
000001a0: fb35 3a3e bb69 67be 8db5 383e 7508 edbd
000001b0: d6d5 6fbe 1eb4 3c3e b339 9abe c94b 7c3e
000001c0: 9473 e2be 2e5a 9cbd 15c5 bb3d d9fc 90be
000001d0: c98a 21bd 0af3 31be 5e46 7cbe 57bc 1b3e
000001e0: 935b ed3d 0005 453e 7aa5 f23d 102d cf3e
000001f0: 69a8 713e 04f6 63bd 6480 1f3e 9524 b73d
00000200: 3b8e 03be 4c75 31bd c3d1 a6be 9738 63be
00000210: f05b 9dbe bd8d 793e cc7f 303e 1345 a5be
00000220: bf80 b6be 3414 0cbe 27b3 c13e 770d 8fbe
00000230: 9b2f 70be 7b35 97be 93a2 1abd 59fa 1c3e
00000240: 5609 3f3e c7f7 373e d796 4c3e b0d0 aebe
00000250: 2b6e 01be 6640 e8be 8e76 febd ec34 253e
00000260: 3cfb d23c 9333 6dbd ed52 243e b120 f93d
00000270: 49d4 86be fbec 843e 3791 96be 1923 6e3e
00000280: 221d acbe 86df e43d f0cb 253e f4ea 983e
00000290: d6a1 bdbe f77a c2bd d3e8 69bd 05f3 a13e
000002a0: 9b64 13be c42b 253e bbd1 48be 3d10 a03e
000002b0: 01be 4a3e 369d 8f3e c5a5 2fbe 17fb 903e
000002c0: cd95 c8bd 488b 903e 7c84 1cbe 4ea3 893d
000002d0: c6dc 903d de3f 643e bcfc cebc 3fd3 973e
000002e0: 8160 25be 572e 90be bfdb bcbd 077b f8be
000002f0: 58fa 6e3d 02f2 813e 0e86 43be a161 16be
00000300: d946 d33d 745f 603e 5dbd c73d 7dbe 72be
00000310: 7b7b 52be c979 b7be e17a 42be fc6f bdbe
00000320: f4b6 13bc faa3 683e 9478 2dbe 7952 4cbe
00000330: d96a 703e 10b5 83be 09f6 873e 00c9 713e
00000340: f739 653e b1ce 9a3d 84fc a7be b057 093e
00000350: 6002 9ebe ac73 743e 4ff1 533e 20c1 b7bd
00000360: 781e c7be 1d91 4dbc 1216 b4bc aac8 f63d
00000370: fa4b 88be 2266 803e 3f28 653d 7654 003e
00000380: 0721 023e 498f 013d 27dd 1e3e eb18 203e
00000390: 76de 483d dcca 8cbd 831e b0be 2bff 2fbd
000003a0: 7a5e 07be 6727 a03e 54d6 9a3e db32 debd
000003b0: 2d51 953d fe14 f73d 9eb8 c43c a9b3 5dbe
000003c0: 1688 9cbe 1e15 343e 0773 c1be 9ec1 f43d
000003d0: 65cc dd3d e6ee 90be 0d67 37be 2be4 abbe
000003e0: dc43 14bf a128 da3c 0f0b ecbd c587 81be
000003f0: fd8c 43be fe93 b43d c45a abbe 4b94 6d3e

arith.constant3 f4 [64, 1600]
-0.033724297 -0.02572804 -0.03345617 0.05581505 -0.01646356 0.02489163 -0.035999626 0.011594313
0.004822792 -0.053466402 0.044009715 -0.022940949 -0.004176859 -0.014704894 0.011051722 0.0028041033
-0.04635362 -0.019331798 0.050905876 0.017691815 -0.05740567 -0.040767293 -0.07589052 -0.0034008287
0.046089545 0.021474786 -0.04751194 -0.031890284 -0.053985383 -0.04732378 -0.03492976 0.054415237
-0.025269276 0.049209885 -0.023224361 -0.050293397 -0.018220808 0.014611006 0.012931958 0.010104076
-0.013394607 -0.0067013577 0.020907508 0.022002041 -0.044988513 -0.020300549 -0.052275773 0.024243526
-0.01673606 0.017188769 -0.057756137 0.014209841 0.012996323 0.0060863444 -0.03015212 0.051911764
0.04004784 0.0018366188 -0.010255378 0.00011397822 -0.029383834 -0.008403242 0.025410786 0.019428203
-0.024171442 0.05764959 -0.058225226 -0.03797409 0.033831798 -0.06339944 -0.052296236 -0.014869833
-0.083775125 0.04691811 0.002042286 0.005181998 -0.023416054 -0.0446596 -0.00039462812 0.0465789
0.038302958 0.002167724 -0.0031295703 -0.000595281 0.028368708 0.022591049 -0.037402272 -0.03808445
-0.024405366 -0.023417642 -0.053193636 0.047084615 0.049835134 -0.03420953 -0.025345962 0.04262895
-0.012473329 -0.030644938 0.008746964 -0.06339253 0.012115178 -0.032948017 0.0020997971 -0.0118015
-0.019613186 0.00083554315 -0.07490688 -0.004467051 -0.00047860114 0.0115377065 0.010733128 -0.03525105
-0.010016289 0.01897597 0.008225597 -0.060691416 -0.05012009 -0.034259155 0.012504965 -0.075460136
-0.052402876 -0.0013858846 -0.024750205 -0.06120093 -0.04395555 -0.048020933 -0.011209492 0.030254811
0.046404254 -0.031623125 -0.015690293 -0.056451466 0.009724818 -2.0792168e-05 -0.036842242 -0.04210127
-0.07107813 0.010356069 -0.04893219 0.02468393 0.008639229 -0.062494054 0.033728965 0.049186226
-0.041019317 -0.011430602 -0.029470412 0.02088472 -0.08186438 0.03733059 -0.068844646 -0.005961455
-0.024391009 0.030029174 -0.025231814 0.018650448 -0.031066546 -0.04910005 0.014845371 -0.058003787
-0.06251433 -0.03482393 -0.011757929 -0.04653689 -0.043414146 -0.00283858 0.033026095 0.02742227
0.028594583 -0.027698895 0.013670459 -0.06265719 -0.04498106 0.04009615 0.039312355 0.0027425364
-0.021137547 -0.008311184 -0.005169213 -0.056094944 -0.011136833 -0.009803887 0.018223742 0.025384199
0.04538777 0.024102323 -0.024211193 -0.04969882 -0.04404523 -0.0023785569 0.0075146654 0.030629935
-0.029144585 -0.0060894415 -0.016008187 0.043748934 0.033343658 0.023417724 0.0053306157 -0.022213066
0.027440956 -0.07195738 -0.026594548 -0.057885155 -0.04729987 0.040405888 0.0032324851 -0.047015656
0.009714335 -0.038313404 0.01392452 -0.07595014 -0.02968118 0.015717395 -0.03038472 0.01967672
0.051635455 0.048872508 0.001382295 -0.06740962 -0.028997257 -0.019003501 -0.036491 -0.034839515
0.017028527 -0.060288887 0.010521477 0.04135752 0.01582203 -0.06467406 0.045211367 -0.07679408
-0.023496661 -0.002869498 -0.015041441 -0.0637761 0.012605525 -0.059956208 -0.035825953 0.04594946
0.017850474 -0.0024776058 -0.08621214 -0.00698085 0.005314132 -0.027551372 -0.057014957 0.014264451
-0.0006770729 -0.005803138 0.03303502 0.032371104 -0.043964535 -0.046875924 0.038675983 -0.019925825
00000000: 7d22 0abd 9cc3 d2bc 5609 09bd 529e 643d
00000010: 96de 86bc 88e9 cb3c 5874 13bd 13f6 3d3c
00000020: 8308 9e3b 96ff 5abd 8843 343d a8ee bbbc
00000030: 08de 88bb ccec 70bc 4812 353c 0cc5 373b
00000040: 4bdd 3dbd b85d 9ebc ae82 503d 6dee 903c
00000050: 3522 6bbd 9bfb 26bd 7d6c 9bbd 70e0 5ebb
00000060: 64c8 3c3d e4eb af3c e19b 42bd 639f 02bd
00000070: c71f 5dbd 94d6 41bd 8212 0fbd 83e2 5e3d
00000080: 8301 cfbc 4e90 493d 0441 bebc 7300 4ebd
00000090: ce43 95bc 0063 6f3c 90e0 533c 918b 253c
000000a0: 0e75 5bbc 1097 dbbb 3946 ab3c a03d b43c
000000b0: e045 38bd 564d a6bc 1f1f 56bd 5c9a c63c
000000c0: 101a 89bc 76cf 8c3c b391 6cbd 65d0 683c
000000d0: 88ee 543c f56f c73b 9401 f7bc 6ea1 543d
000000e0: 3409 243d b3ba f03a 2c06 28bc 9707 ef38
000000f0: 5eb6 f0bc c0ad 09bc 482a d03c e527 9f3c
00000100: 3003 c6bc fa21 6c3d 937d 6ebd b88a 1bbd
00000110: 3693 0a3d 91d7 81bd 9434 56bd 9aa0 73bc
00000120: 4b92 abbd 342d 403d e0d7 053b c0cd a93b
00000130: 06d3 bfbc fcec 36bd 17e6 ceb9 84c9 3e3d
00000140: 90e3 1c3d 6010 0e3b 7a19 4dbb a20c 1cba
00000150: 7e65 e83c dd10 b93c 2033 19bd 71fe 1bbd
00000160: c3ed c7bc 5bd6 bfbc 92e1 59bd ccdb 403d
00000170: ed1f 4c3d 4b1f 0cbd 56a2 cfbc b29b 2e3d
00000180: ef5c 4cbc 180b fbbc 6d4f 0f3c f1d3 81bd
00000190: bd7e 463c 80f4 06bd c09c 093b 145b 41bc
000001a0: d5ab a0bc 5a08 5b3a c768 99bd 5760 92bb
000001b0: c2ec fab9 a608 3d3c 00da 2f3c 6863 10bd
000001c0: 5c1b 24bc 7e73 9b3c a8c4 063c 9097 78bd
000001d0: b94a 4dbd 5453 0cbd a0e1 4c3c d88a 9abd
000001e0: 66a4 56bd 92a6 b5ba f1c0 cabc d4ad 7abd
000001f0: bc0a 34bd 99b1 44bd 04a8 37bc f0d8 f73c
00000200: 6312 3e3d 4087 01bd ee88 80bc a739 67bd
00000210: d854 1f3c d76a aeb7 e4e7 16bd 6272 2cbd
00000220: 6991 91bd 80ac 293c 1f6d 48bd f435 ca3c
00000230: 8e8b 0d3c c4f9 7fbd 6227 0a3d 7f77 493d
00000240: df03 28bd 6b47 3bbc ef6b f1bc 6f16 ab3c
00000250: 83a8 a7bd f6e7 183d 6cfe 8cbd 4f58 c3bb
00000260: a7cf c7bc beff f53c f3b2 cebc d3c8 983c
00000270: 457f febc 221d 49bd 003a 733c 6195 6dbd
00000280: 8307 80bd 8aa3 0ebd 54a4 40bc 779d 3ebd
00000290: 08d3 31bd 7807 3abb 5f46 073d aba4 e03c
000002a0: 303f ea3c cbe8 e2bc 10fa 5f3c 6a52 80bd
000002b0: 0f3e 38bd dc3b 243d fe05 213d 20bc 333b
000002c0: a628 adbc a22b 08bc 8062 a9bb d0c3 65bd
000002d0: 4377 36bc 7ca0 20bc f549 953c 86f2 cf3c
000002e0: 87e8 393d 3c72 c53c 8d56 c6bc fd90 4bbd
000002f0: c568 34bd 90e1 1bbb 953d f63b a1eb fa3c
00000300: a0c0 eebc f089 c7bb 9a23 83bc 1532 333d
00000310: 5c93 083d 87d6 bf3c 72ac ae3b 2df8 b5bc
00000320: dbcb e03c 645e 93bd cfdc d9bc fc18 6dbd
00000330: 82bd 41bd a580 253d 1ad8 533b 7d93 40bd
00000340: e028 1f3c 84ee 1cbd ac23 643c bf8b 9bbd
00000350: f225 f3bc c4c1 803c 60e9 f8bc 1331 a13c
00000360: b37f 533d 8a2e 483d 202e b53a 0e0e 8abd
00000370: a88b edbc 3bad 9bbc 9677 15bd e1b3 0ebd
00000380: 697f 8b3c 7bf1 76bd 4662 2c3c 8166 293d
00000390: 349d 813c d573 84bd 8e2f 393d 3746 9dbd
000003a0: 127c c0bc 300e 3cbb 6070 76bc 0b9d 82bd
000003b0: 6787 4e3c a494 75bd 3cbe 12bd 8035 3c3d
000003c0: 283b 923c 545f 22bb fe8f b0bd 9dbf e4bb
000003d0: 2c22 ae3b 6ab3 e1bc 8488 69bd 72b5 693c
000003e0: 987d 31ba 4028 bebb bb4f 073d 9097 043d
000003f0: 2814 34bd f800 40bd b56a 1e3d 7c3b a3bc

arith.constant4 f4 [64]
-0.014112696 -0.0062153474 0.034602992 -0.010159983 0.047293466 0.06802951 0.005821216 -0.011679191
-0.0041219327 -0.07379584 0.00075562054 0.011815624 -0.01374637 0.04548609 -0.0051384927 -0.041532476
-0.012151914 0.04018487 0.010058757 0.009673077 0.057365105 -0.018860077 -0.011151498 -0.013357775
0.031297475 -0.005415834 -0.043675415 -0.007401619 -0.019559857 0.012944443 -0.009379003 -0.01876835
0.012254959 -0.03733909 0.0063585714 0.030110558 -0.0015242855 -0.009450053 -0.0036192243 0.023388261
-0.01940346 -0.03226661 0.024232332 0.0086877635 -0.0069463644 0.02653486 -0.0060282983 0.0100908205
-0.031972498 0.054738566 0.03226834 -0.0040147426 0.0691486 -0.034688614 0.008725175 0.014886673
0.06492833 -0.006003066 0.021690374 -0.0082308445 0.024727842 -0.045185294 -0.0048164017 -0.024641283
00000000: f038 67bc 1daa cbbb debb 0d3d 0f76 26bc
00000010: cbb6 413d 0e53 8b3d e6bf be3b 145a 3fbc
00000020: 4711 87bb 4622 97bd d614 463a 5296 413c
00000030: 7438 61bc 9f4f 3a3d cd60 a8bb f51d 2abd
00000040: d218 47bc e498 243d 7ccd 243c d37b 1e3c
00000050: acf7 6a3d 7380 9abc c6b4 36bc 92da 5abc
00000060: c831 003d 4f77 b1bb fee4 32bd 4889 f2bb
00000070: fe3b a0bc ee14 543c 64aa 19bc 15c0 99bc
00000080: 06c9 483c e0f0 18bd 905b d03b 6baa f63c
00000090: 89ca c7ba 65d4 1abc 8230 6dbb bd98 bf3c
000000a0: 01f4 9ebc fe29 04bd e282 c63c 1f57 0e3c
000000b0: 549e e3bb a25f d93c 0889 c5bb f853 253c
000000c0: 98f5 02bd 8c35 603d cf2b 043d 1a8e 83bb
000000d0: c89d 8d3d a615 0ebd 09f4 0e3c 3be7 733c
000000e0: 25f9 843d 5eb5 c4bb 03b0 b13c aada 06bc
000000f0: 0b92 ca3c 3714 39bd e8d2 9dbb 84dc c9bc

arith.constant5 f4 [10]
0.047751702 0.053115558 -0.0012575175 -0.02708716 0.04540645 -0.034871817 -0.06474775 0.023001112
0.038666908 -0.0664509
00000000: 4a97 433d b38f 593d 49d3 a4ba e4e5 ddbc
00000010: 1dfc 393d c0d5 0ebd 789a 84bd d46c bc3c
00000020: 3161 1e3d 6917 88bd

sequential_1/conv2d_1/convolution f4 [32, 3, 3, 1]
-0.17849234 0.013882838 0.03842692 0.123521194 0.06568501 0.1514127 0.038082033 -0.05608055
-0.26877618 0.05833484 0.18870775 0.017336804 0.0038128425 0.2809575 -0.30087444 0.19736974
-0.040567078 -0.41811904 0.14438163 0.020058848 0.22472712 -0.096736595 -0.09384535 0.14462884
-0.19062583 -0.09862685 0.11995496 0.13703278 0.42106172 0.037411608 0.41600978 0.06764653
-0.3714038 -0.14298244 -0.5179656 -0.17220144 0.0715008 0.09775076 -0.021214504 0.121007495
0.17233257 -0.068018794 -0.124389075 0.021815203 0.16112511 0.23133087 0.2020822 0.2603474
0.0034412846 0.08004228 -0.03139149 -0.27080846 -0.3296459 -0.26355308 0.042346932 -0.04172406
0.061071534 0.018803267 -0.013619652 -0.059163045 0.05075629 -0.029550556 0.05088716 0.31832913
0.07067415 -0.15602349 0.26324445 -0.047442745 -0.3862015 0.044992182 -0.05395418 -0.32145277
-0.22868843 0.2210435 0.2529516 -0.27664632 0.09367025 0.1404664 -0.3375755 -0.03255459
-0.0021097274 -0.10795986 -0.4584532 -0.06155606 -0.45685384 0.026072543 0.3059905 -0.24968562
0.15146725 0.1451924 -0.020394579 0.092016794 0.032351248 0.08999195 0.19105375 0.18201475
-0.29168975 -0.2762077 -0.09665625 -0.13673945 -0.3436732 -0.43127418 0.42326698 -0.07198804
-0.2308873 0.34866685 0.32153785 0.031022478 -0.16340941 -0.2250486 0.07166167 -0.23752578
-0.010938182 0.2015536 -0.17815194 0.16997953 0.17917989 0.019315973 -0.123769745 -0.55510354
0.0070579853 0.07541084 0.014927974 0.0042638546 0.24361025 0.30432487 0.09111382 0.10035884
-0.2958437 0.21303834 -0.06319093 -0.2759163 0.20593432 -0.13689268 -0.016715273 -0.029887136
-0.17073199 0.12961721 0.1086298 0.07141441 0.100713134 0.090836026 0.05677898 -0.055813767
0.07320882 0.08760728 0.06211464 0.00896975 0.051997583 -0.022252195 0.043524526 0.091091804
-0.012999726 -0.29532918 -0.21950616 -0.010237083 -0.12692003 0.06585487 0.19986229 0.23366196
0.2177854 0.11417316 0.1293159 0.00661352 0.086523056 0.06985251 -0.011590666 -0.018719232
-0.15980498 -0.2041767 -0.37365887 0.21510494 0.040816747 0.23723227 -0.04778931 0.19989677
-0.0066107367 -0.3680035 -0.36444303 -0.22265133 -0.14221285 0.18808016 -0.09803995 0.10562168
0.13115804 0.06732334 -0.045507625 -0.096583284 0.11047504 -0.13855807 -0.12477485 0.058975764
0.24800661 0.19037698 0.07080113 -0.15361544 -0.18273772 -0.11558708 0.09935588 0.19640444
0.28195983 -0.0462691 -0.069837086 0.022736568 -0.101950474 -0.3165742 -0.33163327 0.0075376024
0.21313834 0.03838121 -0.16049711 -0.0057302825 0.18080862 -0.30447808 0.012269489 -0.08960038
0.12408747 0.23235568 0.2816648 -0.13062741 -0.017125005 0.16903119 -0.36411056 -0.30975994
-0.10406787 -0.4222337 0.102123596 0.3160351 -0.33540422 -0.104246736 0.29370633 -0.33891404
-0.24339071 0.19118902 0.13637061 0.11041484 -0.042376116 -0.094797865 0.20190391 -0.124989666
-0.04500378 0.140518 0.0758643 0.07405508 0.13815314 -0.049578544 -0.020514512 0.015695892
-0.04036003 0.08494137 0.060640518 -0.1528492 -0.0944634 0.07827063 0.09525913 -0.13519393
00000000: b2c6 36be d874 633c 8c65 1d3d aef8 fc3d
00000010: dd85 863d ee0b 1b3e e8fb 1b3d b8b4 65bd
00000020: 089d 89be 83f0 6e3d 9b3c 413e ea05 8e3c
00000030: e2e0 793b a9d9 8f3e 370c 9abe 4b1b 4a3e
00000040: aa29 26bd b313 d6be c7d8 133e 7452 a43c
00000050: de1e 663e d61d c6bd fe31 c0bd 9519 143e
00000060: 6b33 43be e0fc c9bd f2aa f53d 5252 0c3e
00000070: 6795 d73e ea3c 193d 3cff d43e 448a 8a3d
00000080: a428 bebe fd69 12be 6599 04bf 9355 30be
00000090: 036f 923d 8d31 c83d 0aca adbc c7d2 f73d
000000a0: f377 303e 704d 8bbd b3bf febd ccb5 b23c
000000b0: fbfd 243e 00e2 6c3e a3ee 4e3e 414c 853e
000000c0: 2d87 613b 35ed a33d 5d94 00bd 68a7 8abe
000000d0: 59c7 a8be 6ef0 86be fa73 2d3d d9e6 2abd
000000e0: 2526 7a3d 4f09 9a3c f624 5fbc f354 72bd
000000f0: d4e5 4f3d 0214 f2bc 0e6f 503d 09fc a23e
00000100: 9cbd 903d 9fc4 1fbe fac7 863e 5353 42bd
00000110: 34bc c5be b949 383d 0fff 5cbd 7595 a4be
00000120: 4d2d 6abe 3a59 623e df82 813e 96a4 8dbe
00000130: 30d6 bf3d 6dd6 0f3e b2d6 acbe f657 05bd
00000140: 5a43 0abb 0f1a ddbd 61ba eabe 3522 7cbd
00000150: bfe8 e9be 1696 d53c c9aa 9c3e 96ad 7fbe
00000160: 3b1a 1b3e 51ad 143e 8812 a7bc 4d73 bc3d
00000170: be82 043d b34d b83d 98a3 433e 1362 3a3e
00000180: 5c58 95be 186b 8dbe b6f3 c5bd 6d05 0cbe
00000190: eff5 afbe f8cf dcbe 73b6 d83e 776e 93bd
000001a0: b86d 6cbe 7684 b23e 9ca0 a43e da22 fe3c
000001b0: cc54 27be 2473 66be 5bc3 923d f539 73be
000001c0: 0f36 33bc 1164 4e3e 766d 36be 1d0f 2e3e
000001d0: ef7a 373e 883c 9e3c fe7a fdbd 441b 0ebf
000001e0: ac46 e73b 0071 9a3d 7694 743c ceb7 8b3b
000001f0: f774 793e 78d0 9b3e e299 ba3d ef88 cd3d
00000200: d378 97be b926 5a3e 3f6a 81bd e744 8dbe
00000210: 72e0 523e 982d 0cbe 78ee 88bc ded5 f4bc
00000220: 5ed4 2ebe 60ba 043e 4d79 de3d b841 923d
00000230: b042 ce3d 3d08 ba3d 1391 683d fa9c 64bd
00000240: 81ee 953d 726b b33d ec6b 7e3d dcf5 123c
00000250: 6bfb 543d 3c4a b6bc c646 323d 578e ba3d
00000260: cefc 54bc 6335 97be 39c6 60be 70b9 27bc
00000270: 53f7 01be ebde 863d b3a8 4c3e 1545 6f3e
00000280: 2303 5f3e 9ed3 e93d 636b 043e 3ab6 d83b
00000290: 0033 b13d d50e 8f3d c7e6 3dbc 1359 99bc
000002a0: eba3 23be b213 51be 3750 bfbe 7844 5c3e
000002b0: 762f 273d 04ed 723e b9be 43bd bdb1 4c3e
000002c0: e19e d8bb f46a bcbe 4798 babe b6fe 63be
000002d0: 3fa0 11be 1698 403e 2bc9 c8bd 2e50 d83d
000002e0: 4b4e 063e d2e0 893d 3466 3abd 75cd c5bd
000002f0: bd40 e23d 2be2 0dbe f589 ffbd 9290 713d
00000300: 72f5 7d3e 2ff2 423e 2f00 913d 5e4d 1dbe
00000310: 991f 3bbe ebb8 ecbd 187b cb3d 3f1e 493e
00000320: 0a5d 903e ab84 3dbd bf06 8fbd 0a42 ba3c
00000330: 69cb d0bd 0316 a2be d6cb a9be fefd f63b
00000340: f040 5a3e 9e35 1d3d 5b59 24be 18c5 bbbb
00000350: e525 393e 8de4 9bbe f705 493c 6780 b7bd
00000360: 9221 fe3d a6ee 6d3e 5e36 903e 31c3 05be
00000370: bd49 8cbc 8316 2d3e b36c babe db98 9ebe
00000380: 8921 d5bd 042f d8be 2d26 d13d 5acf a13e
00000390: 1aba abbe 507f d5bd ad60 963e 2486 adbe
000003a0: 6a3b 79be 0ec7 433e bda4 0b3e 2d21 e23d
000003b0: 9492 2dbd 6225 c2bd e6bf 4e3e 95fa ffbd
000003c0: e255 38bd f3e3 0f3e be5e 9b3d 31aa 973d
000003d0: 0478 0d3e df12 4bbd 0d0e a8bc ac94 803c
000003e0: 8f50 25bd bef5 ad3d 3162 783d 8084 1cbe
000003f0: 0776 c1bd 5a4c a03d 3817 c33d 4770 0abe

sequential_1/conv2d_1/Relu;sequential_1/conv2d_1/add;sequential_1/conv2d_1/convolution; f4 [32]
-0.12978165 -0.030578926 -0.12409879 0.020112889 -0.1706228 0.03346921 -0.13804998 -0.010653188
-0.00626241 0.02755281 -0.04671357 0.0083343275 -0.028478066 -0.013307398 0.033575505 -0.16153917
-0.17002633 -0.058251582 -0.033440653 0.044651065 -0.10556101 -0.009629346 -0.014753421 -0.010051738
-0.01044383 -0.009987207 -0.16001862 -0.17472918 -0.14014551 -0.17464031 -0.10579454 0.0033688797
00000000: 7be5 04be a880 fabc 8227 febd c9c3 a43c
00000010: beb7 2ebe 0317 093d f95c 0dbe b68a 2ebc
00000020: e734 cdbb 6eb6 e13c ba56 3fbd b48c 083c
00000030: d54a e9bc 4607 5abc 7886 093d 866a 25be
00000040: 621b 2ebe 3699 6ebd 11f9 08bd 09e4 363d
00000050: 5f30 d8bd 68c4 1dbc 55b8 71bc 0bb0 24bc
00000060: 991c 2bbc 62a1 23bc ecdb 23be 35ec 32be
00000070: 4e82 0fbe e9d4 32be cfaa d8bd 6cc8 5c3b
